app/model.pth (torch, 51697 bytes, 7 tensors)

fc1.weight f4 [128, 13]
0.06830759 0.2623126 0.2439247 0.12429255 0.24764796 0.17440934 0.19359441 0.02554821
-0.16958319 0.05903031 0.24778324 -0.2786523 0.09379997 0.11673598 0.115195684 0.016460447
-0.04557997 0.13650072 -0.02637651 0.19884162 -0.050734267 -0.18577777 0.100696824 -0.06276531
0.23570108 -0.1435564 -0.14546001 -0.18513449 -0.04752503 0.1364131 0.18045507 -0.07368309
-0.06320262 -0.15251344 0.049261164 -0.11717885 -0.24061665 0.047204286 -0.054627217 0.2868319
-0.15368822 -0.106042415 -0.19805981 -0.041855708 0.03239769 -0.17038825 0.012109673 -0.25000903
0.24765894 0.09309809 -0.17641284 0.108012065 0.25548795 0.010573065 0.027144622 -0.23489651
-0.062446456 -0.1893261 0.22386241 -0.13727722 -0.21628776 -0.14899434 0.21839434 0.18327555
-0.2143924 -0.03358484 -0.071397245 0.1639391 -0.14389342 0.18036136 -0.23602954 -0.16696496
0.2738397 0.111096226 0.23483588 0.20699579 0.07223784 -0.059756 0.003257238 -0.043464344
0.20899446 -0.25656286 0.021229103 0.0345726 0.1841963 -0.18315808 -0.18640506 -0.086411655
-0.18020779 -0.09673819 -0.252759 0.116621874 -0.138381 -0.22899163 -0.026440041 -0.22895029
-0.16992752 0.14501782 0.05896207 -0.23572159 0.12831944 -0.0033631653 0.2701476 0.14217621
-0.21190007 -0.008258692 -0.21512434 0.16800554 -0.12382861 0.19927098 0.10328524 0.1192979
-0.23160005 0.20712541 0.009595405 0.19672109 0.0078085256 -0.24748607 -0.16526052 0.26353398
-0.24219848 0.07219769 -0.19207726 0.23051873 -0.14068665 -0.23471464 0.25941887 -0.17359169
0.2326498 -0.13202852 -0.15656582 -0.22222707 -0.17000836 -0.18451323 0.21018313 0.14457263
-0.014540228 0.20036288 0.013350034 0.11664388 0.25486484 0.21861796 0.13498506 0.20894912
0.11142283 0.25304812 0.23735249 -0.02051119 -0.07346545 -0.1648454 -0.2619406 0.17121176
-0.017065525 -0.12909499 -0.20816806 -0.15377845 0.1959614 -0.23038357 0.0006167482 0.010923879
-0.026918815 0.023047185 -0.001676002 -0.23067638 -0.27660206 -0.113729864 -0.02344672 0.10376657
-0.25840136 -0.18924975 -0.294211 -0.23654725 -0.107409365 0.24998449 -0.23873128 0.104298465
-0.06977258 0.061860815 0.036666833 0.26545638 0.13447784 -0.08578685 0.2727618 -0.11844787
0.05837359 -0.087707356 -0.21127014 0.140178 0.16511253 0.22517927 0.19876452 0.14479588
0.16141997 0.04557594 0.2058178 -0.142658 -0.19674265 0.14926387 -0.21688801 -0.26461428
-0.21964441 0.09075408 0.18889433 0.06404547 -0.1982736 0.19942549 -0.17964356 0.18321328
-0.19966795 0.00688598 -0.10712427 -0.20968488 -0.12184661 0.1584464 -0.175323 0.17061506
0.24449587 0.22857083 0.055127177 0.18646163 0.21584752 0.036767367 0.13947141 0.15095162
0.26581806 -0.05808043 -0.020316372 0.05548963 0.21909155 -0.19253708 0.1283395 -0.25830927
0.06938372 -0.07426351 -0.15562092 -0.11178823 -0.009922167 -0.045458674 -0.11675918 -0.18037131
0.20975496 -0.07518704 0.042503383 0.13726117 -0.21733329 0.20584561 -0.042763203 0.033729523
-0.2330518 0.2640362 -0.16347228 -0.22150005 -0.1717332 0.03676576 0.20336847 -0.11642684
00000000: dae4 8b3d d64d 863e 66c7 793e 188d fe3d
00000010: 6d97 7d3e 5d98 323e 9d3d 463e 7b4a d13c
00000020: 37a7 2dbe c4c9 713d e4ba 7d3e 84ab 8ebe
00000030: 331a c03d 4613 ef3d b7eb eb3d 0fd8 863c
00000040: 10b2 3abd d8c6 0b3e 8d13 d8bc 239d 4b3e
00000050: bcce 4fbd 873c 3ebe 233a ce3d 198b 80bd
00000060: a05b 713e 7300 13be 78f3 14be e593 3dbe
00000070: 9ba9 42bd e0af 0b3e 37c9 383e 29e7 96bd
00000080: 6070 81bd 7c2c 1cbe 13c6 493d 77fb efbd
00000090: 3664 76be 4859 413d cac0 5fbd a1db 923e
000000a0: 7260 1dbe c42c d9bd 31d0 4abe e470 2bbd
000000b0: 71b3 043d 427a 2ebe a667 463c 2f01 80be
000000c0: 4e9a 7d3e 36aa be3d 91a5 34be 6e35 dd3d
000000d0: 51cf 823e a63a 2d3c 665e de3c b688 70be
000000e0: dbc7 7fbd b3de 41be 303c 653e 6692 0cbe
000000f0: 8a7a 5dbe f991 18be c4a2 5f3e 96ac 3b3e
00000100: ae89 5bbe 4290 09bd b838 92bd a7df 273e
00000110: cc58 13be a6b0 383e bab1 71be ddf8 2abe
00000120: b834 8c3e 6b86 e33d d178 703e b4f6 533e
00000130: 6ff1 933d b5c2 74bd 6377 553b ab07 32bd
00000140: a502 563e 355c 83be a8e8 ad3c 009c 0d3d
00000150: f49d 3c3e cb8d 3bbe f8e0 3ebe 98f8 b0bd
00000160: 6488 38be ac1e c6bd a169 81be 73d7 ee3d
00000170: c0b3 0dbe c87c 6abe c998 d8bc f271 6abe
00000180: 7b01 2ebe 8d7f 143e 3682 713d 0061 71be
00000190: 2c66 033e 8d68 5cbb c950 8a3e a496 113e
000001a0: 55fc 58be 774f 07bc 8e49 5cbe a509 2c3e
000001b0: db99 fdbd b10d 4c3e 3687 d33d 7552 f43d
000001c0: 9028 6dbe af18 543e 0c36 1d3c 4171 493e
000001d0: a9de ff3b fd6c 7dbe 0e3a 29be eded 863e
000001e0: e102 78be 62dc 933d e7af 44be 1a0d 6c3e
000001f0: 2910 10be 0959 70be 8dd2 843e 05c2 31be
00000200: c03b 6e3e 7c32 07be ca52 20be 7e8f 63be
00000210: ac16 2ebe 09f1 3cbe 3f3a 573e d90a 143e
00000220: 233a 6ebc ed2b 4d3e 1aba 5a3c fde2 ee3d
00000230: a57d 823e 63dd 5f3e 8639 0a3e c2f6 553e
00000240: a731 e43d 868f 813e 880c 733e 1507 a8bc
00000250: 0e75 96bd 3ccd 28be 141d 86be 2352 2f3e
00000260: 00cd 8bbc 7a31 04be 022a 55be 1978 1dbe
00000270: 1baa 483e ace9 6bbe 45ad 213a 12fa 323c
00000280: d984 dcbc 73cd bc3c 4cad dbba 6e36 6cbe
00000290: c99e 8dbe 34eb e8bd 5613 c0bc 9183 d43d
000002a0: 2f4d 84be b0ca 41be d3a2 96be 7139 72be
000002b0: 71f9 dbbd effb 7f3e f975 74be 6f9a d53d
000002c0: ede4 8ebd c461 7d3d f62f 163d e6e9 873e
000002d0: 8fb4 093e 04b1 afbd 6fa7 8b3e cc94 f2bd
000002e0: 2519 6f3d ea9f b3bd 3357 58be d28a 0f3e
000002f0: 4213 293e 6595 663e ed88 4b3e 5f45 143e
00000300: 474b 253e d6ad 3a3d e7c1 523e f014 12be
00000310: e876 49be a1d8 183e e417 5ebe 867b 87be
00000320: 77ea 60be 46dd b93d 846d 413e 452a 833d
00000330: 3c08 4bbe 3236 4c3e 7bf4 37be 439c 3b3e
00000340: c175 4cbe c9a3 e13b f863 dbbd a2b7 56be
00000350: b78a f9bd c63f 223e df87 33be b7b5 2e3e
00000360: 205d 7a3e 790e 6a3e 09cd 613d ccef 3e3e
00000370: 2207 5d3e 6199 163d 98d1 0e3e 1093 1a3e
00000380: 4e19 883e bfe5 6dbd 856e a6bc 1849 633d
00000390: 8959 603e 7128 45be 6e6b 033e 1d41 84be
000003a0: 0d19 8e3d 7817 98bd 175b 1fbe 3af1 e4bd
000003b0: 9690 22bc e032 3abd 701f efbd 42b3 38be
000003c0: 01ca 563e aafb 99bd 0718 2e3d 318e 0c3e
000003d0: 9e8c 5ebe 31c9 523e 7828 2fbd f827 0a3d
000003e0: 22a5 6ebe c12f 873e 4765 27be e9d0 62be
000003f0: d4da 2fbe b297 163d d33f 503e 3271 eebd

fc1.bias f4 [128]
0.24991322 0.10780245 0.18042505 0.19232047 0.23767605 0.006705822 0.25817955 0.18577218
0.0023835576 -0.0057199737 0.060801454 -0.09263877 -0.14715682 0.12301324 0.141228 -0.17686982
0.042348158 -0.2589124 0.22070415 -0.17599754 -0.15856613 0.247123 0.18617204 -0.014593913
-0.1648839 -0.22145487 -0.07664955 0.208553 0.16169852 -0.22341204 -0.033713996 -0.12416772
-0.03589508 0.12325146 -0.11420352 0.13002688 -0.11298211 0.07049841 -0.06566689 -0.1599885
-0.2310277 0.10779372 0.13277635 0.11756962 -0.14044678 -0.03687551 -0.26438102 0.15139158
-0.26876086 0.1052094 0.0853658 0.2328769 -0.19255216 0.18771653 0.062234227 -0.21902817
0.19102526 0.2638755 0.10668011 -0.009699741 0.23443855 -0.27349046 -0.2679381 0.16581562
-0.22297157 -0.11297151 -0.09531589 -0.26409876 0.24739933 -0.2004644 0.027562192 0.0167827
-0.22767219 0.03330311 -0.21944204 -0.09612323 -0.2906735 -0.15746857 -0.23691052 -0.009003019
0.05366003 -0.0443967 0.13286835 -0.14544655 0.16634159 0.036469575 -0.16565424 -0.1436089
0.2565213 0.15565903 0.07941968 0.24046949 0.27423057 0.12267606 -0.16220862 0.11590183
-0.0137743 -0.28228855 -0.15207312 0.1136873 -0.19093938 0.042899977 -0.18978228 -0.21261163
0.18489859 0.12244928 -0.043153 -0.018792477 -0.089855455 0.24787135 0.17951123 0.15885538
0.14222324 0.14102656 -0.23294243 -0.18815933 0.01969086 0.054614555 0.041969478 0.20715635
0.11070792 0.0051580844 -0.03498183 -0.25377816 -0.14323612 0.24533731 0.052145362 -0.12679441
00000000: 40e9 7f3e 88c7 dc3d 58c1 383e a8ef 443e
00000010: 5a61 733e 83bc db3b 1c30 843e 103b 3e3e
00000020: 7635 1c3b 9e6e bbbb f20a 793d 65b9 bdbd
00000030: 47b0 16be 5eee fb3d 139e 103e 5d1d 35be
00000040: 4375 2d3d 2b90 84be 4500 623e b338 34be
00000050: 295f 22be d00d 7d3e e2a3 3e3e 4f1b 6fbc
00000060: 53d7 28be 11c5 62be 70fa 9cbd eb8e 553e
00000070: 4c94 253e 20c6 64be b017 0abd a54b febd
00000080: b806 13bd 436b fc3d 89e3 e9bd c425 053e
00000090: 2a63 e7bd 7861 903d 5d7c 86bd 06d4 23be
000000a0: 8692 6cbe f4c2 dc3d 86f6 073e 57c8 f03d
000000b0: 48d1 0fbe c60a 17bd f35c 87be 6506 1b3e
000000c0: 069b 89be 0778 d73d 44d4 ae3d 4877 6e3e
000000d0: 652c 45be c338 403e 51e9 7e3d ec48 60be
000000e0: 209c 433e b11a 873e 1a7b da3d aaeb 1ebc
000000f0: a910 703e f106 8cbe 2f2f 89be 92cb 293e
00000100: a952 64be 9b5d e7bd fa34 c3bd f437 87be
00000110: 4056 7d3e 8a46 4dbe 1bca e13c df7b 893c
00000120: e622 69be d868 083d 6ab5 60be 42dc c4bd
00000130: 28d3 94be 713f 21be ac98 72be 6681 13bc
00000140: 9fca 5b3d 50d9 35bd a40e 083e f1ef 14be
00000150: 7355 2a3e 1f61 153d 44a1 29be 360e 13be
00000160: c356 833e 1565 1f3e c9a6 a23d a23d 763e
00000170: f367 8c3e 963d fb3d 041a 26be f05d ed3d
00000180: 9aad 61bc 2088 90be 0eb9 1bbe e3d4 e83d
00000190: 9d85 43be e3b7 2f3d 4956 42be ddb6 59be
000001a0: 0e56 3d3e b0c6 fa3d 33c1 30bd aef2 99bc
000001b0: 2306 b8bd fdd1 7d3e cbd1 373e fcaa 223e
000001c0: f8a2 113e 4469 103e 7688 6ebe d7ac 40be
000001d0: ba4e a13c 83b3 5f3d 30e8 2b3d cb20 543e
000001e0: d5ba e23d 2605 a93b 1b49 0fbd 36ef 81be
000001f0: 7dac 12be b439 7b3e 6096 553d 65d6 01be

fc2.weight f4 [64, 128]
0.058477886 -0.003279296 -0.06507501 0.015637107 -0.068845935 0.032780565 -0.017079938 0.07461925
0.055539448 -0.0030110483 -0.06365053 -0.032308877 0.07706102 0.03539344 -0.061241217 0.04617516
-0.045264326 0.025892511 -0.03486627 0.0439765 -0.024541229 0.040836766 0.03285788 -0.09391097
0.007446325 0.09488276 -0.07794659 -0.038723968 -0.014208654 0.003043472 -0.089520134 -0.025968356
0.0774691 0.059550233 -0.037414804 -0.052930467 -0.05577124 0.07082585 0.04524354 0.06495623
0.0253933 0.085439734 0.020855343 -0.02076862 -0.028743219 0.08287046 0.0059681083 0.08501242
0.005254234 0.05504944 -0.013569082 0.05063109 0.042442616 0.0396473 0.012731141 -0.071092024
-0.07522795 -0.03904209 -0.028912183 -0.0032250832 -0.0061611473 0.06597644 0.08495991 -0.013735648
-0.047104537 -0.060066223 0.07169165 -0.09253617 0.029495887 0.005680002 0.07464718 0.035570703
-0.001433328 -0.007921103 0.03752354 0.068046406 0.045710083 -0.015684003 -0.058511443 -0.06733154
-0.0045304527 -0.016141064 -0.01073337 0.08690951 0.013318529 0.012866206 0.04880997 0.034045722
-0.06848666 -0.041158855 0.07113349 0.03160861 0.008612223 0.008542573 -0.05539451 0.08500951
0.08391972 -0.031594656 -0.05687778 -0.04238925 -0.00046753924 0.043136194 0.032352474 0.014338541
0.0055560535 0.05603506 -0.053403843 -0.04904147 0.0017757241 -0.031738255 -0.0038893681 -0.02487567
-0.027716065 0.08356338 -0.07293256 0.013076292 0.063413106 0.05141372 -0.008886282 -0.019989545
-0.07705179 -0.031061945 0.06945248 0.037683483 -0.00607461 -0.07780149 -0.08255829 -0.064806916
-0.01424939 -0.07603227 0.034115855 0.046060234 0.053252373 -0.07351897 -0.06850048 -0.097061515
0.017427543 0.041133605 -0.073918074 -0.009401398 -0.060202435 0.046984125 0.01157528 0.053547718
0.07491675 -0.008760888 0.034151018 0.012297555 0.06542109 -0.064359106 0.04885752 0.009932582
0.08277101 -0.08329947 -0.036902286 0.06475055 0.076861866 0.03758366 0.041798953 0.025671713
-0.052984763 -0.0773907 -0.052390143 0.06802773 -0.07267884 0.009755952 0.0347479 0.043996256
0.0028606956 0.07941893 -0.07272953 -0.004847426 -0.055368476 -0.0756619 0.059720367 0.07759031
0.03604567 -0.049025647 0.06656688 -0.008136741 0.043843955 -0.060257096 -0.09449847 0.065324605
0.036910895 0.0647048 0.042049404 -0.04034103 -0.085287586 -0.065586716 0.0042723143 -0.015340453
0.085535675 -0.005065025 0.053002346 -0.019291691 0.07340957 -0.0798951 0.04483496 -0.06260966
-0.08138926 -0.0013920146 -0.068734676 0.08458525 -0.016092816 -0.09205824 0.015435826 -0.05492585
-0.0703987 -0.022529513 -0.052943278 -0.082965255 -0.0078087486 0.06816366 0.073759295 -0.08123139
-0.07747825 -0.021628104 -0.04598659 0.03391705 -0.044224653 0.032263204 -0.038319226 -0.05510356
-0.03364754 0.075022474 -0.061552532 0.031405754 -0.048654545 0.07798081 0.033874806 0.07808736
-0.07651138 0.06710559 0.056260537 -0.06804122 -0.057367556 -0.010968092 0.05624814 -0.04880404
0.033220403 -0.033588048 0.08397104 0.05528408 0.07742617 -0.021331672 0.008407373 -0.020997284
-0.062434684 0.017764395 -0.03754586 -0.035305228 0.05464184 0.03241378 0.021090439 0.09015255
00000000: 8286 6f3d 75e9 56bb 0c46 85bd 6419 803c
00000010: 19ff 8cbd ea44 063d 3aeb 8bbc fad1 983d
00000020: 557d 633d 0255 45bb 365b 82bd 5056 04bd
00000030: 2bd2 9d3d b6f8 103d 12d8 7abd 2a22 3d3d
00000040: 1667 39bd 881c d43c efcf 0ebd b420 343d
00000050: b00a c9bc 7444 273d fc95 063d 6554 c0bd
00000060: 4d00 f43b e451 c23d 76a2 9fbd 069d 1ebd
00000070: 6acb 68bc fd74 473b 5556 b7bd 97bb d4bc
00000080: 1fa8 9e3d f2ea 733d 4440 19bd 9ecd 58bd
00000090: 6270 64bd 250d 913d 4a51 393d c607 853d
000000a0: 9c05 d03c 07fb ae3d d3d8 aa3c f422 aabc
000000b0: e676 ebbc fdb7 a93d 1f90 c33b fe1a ae3d
000000c0: b62b ac3b 867b 613d db50 5ebc 8c62 4f3d
000000d0: 4fd8 2d3d 3565 223d 4796 503c b298 91bd
000000e0: 1d11 9abd 99ea 1fbd 3ed9 ecbc eb5b 53bb
000000f0: 73e3 c9bb a81e 873d 76ff ad3d 7c0b 61bc
00000100: b0f0 40bd 0008 76bd 12d3 923d 9a83 bdbd
00000110: 5ca1 f13c 4f1f ba3b 9fe0 983d 96b2 113d
00000120: 82de bbba 84c7 01bc 49b2 193d ea5b 8b3d
00000130: 7f3a 3b3d bd7b 80bc b2a9 6fbd 1ee5 89bd
00000140: 3174 94bb 443a 84bc 04db 2fbc 9dfd b13d
00000150: f635 5a3c c7cc 523c f7ec 473d 8773 0b3d
00000160: bc42 8cbd 3096 28bd 6fae 913d 0878 013d
00000170: 481a 0d3c 26f6 0b3c 5be5 62bd 7719 ae3d
00000180: 1ade ab3d 6669 01bd adf8 68bd 5aa0 2dbd
00000190: 0e20 f5b9 94af 303d 0784 043d 33ec 6a3c
000001a0: 8e0f b63b 0585 653d fdbd 5abd b5df 48bd
000001b0: 6abf e83a f9ff 01bd c5e4 7ebb 10c8 cbbc
000001c0: cd0c e3bc 4723 ab3d ab5d 95bd f23d 563c
000001d0: bbde 813d 3197 523d c597 11bc 1dc1 a3bc
000001e0: 54cd 9dbd 9f75 febc 1a3d 8e3d ff59 1a3d
000001f0: 860d c7bb 6356 9fbd 5214 a9bd 7db9 84bd
00000200: 4676 69bc cfb6 9bbd 11bd 0b3d a8a9 3c3d
00000210: 291f 5a3d 1d91 96bd fb49 8cbd 30c8 c6bd
00000220: 35c4 8e3c b67b 283d 5c62 97bd 5208 1abc
00000230: d496 76bd 6d72 403d 3ea6 3d3c da54 5b3d
00000240: f46d 993d d489 0fbc f0e1 0b3d af7b 493c
00000250: 7efb 853d b5ce 83bd d31e 483d 45bc 223c
00000260: d983 a93d ea98 aabd da26 17bd f09b 843d
00000270: c169 9d3d 53f1 193d 6135 2b3d 7c4d d23c
00000280: 8d06 59bd 047f 9ebd 0c97 56bd 1f52 8b3d
00000290: a5d8 94bd 6ed7 1f3c d053 0e3d 6b35 343d
000002a0: 827a 3b3b 64a6 a23d 38f3 94bd 28d7 9ebb
000002b0: 0eca 62bd a0f4 9abd 589d 743d abe7 9e3d
000002c0: a0a4 133d 1ecf 48bd 3754 883d f74f 05bc
000002d0: b895 333d 25d0 76bd 6a88 c1bd e8c8 853d
000002e0: e12f 173d f383 843d ff3b 2c3d a33c 25bd
000002f0: 42ab aebd 5452 86bd c5fe 8b3b 8656 7bbc
00000300: 542d af3d 82f8 a5bb fd18 593d 9c09 9ebc
00000310: c257 963d 0ba0 a3bd dda4 373d 7e39 80bd
00000320: 6aaf a6bd 4274 b6ba c4c4 8cbd 083b ad3d
00000330: 15d5 83bc 0889 bcbd 8ce6 7c3c eef9 60bd
00000340: 322d 90bd d08f b8bc 0ddb 58bd b0e9 a9bd
00000350: 88e0 ffbb 6499 8b3d 1d0f 973d a55c a6bd
00000360: ebac 9ebd 6c2d b1bc 6f5c 3cbd 9bec 0a3d
00000370: e924 35bd 6c26 043d 9ff4 1cbd 45b4 61bd
00000380: 01d2 09bd 62a5 993d 821e 7cbd 52a3 003d
00000390: fd49 47bd 67b4 9f3d 4fc0 0a3d 44ec 9f3d
000003a0: 00b2 9cbd a86e 893d 7371 663d 3259 8bbd
000003b0: 3efa 6abd 83b3 33bc 7364 663d bfe6 47bd
000003c0: 1e12 083d 9f93 09bd 02f9 ab3d 8f71 623d
000003d0: 9d91 9e3d c2bf aebc 14bf 093c 7f02 acbc
000003e0: 83bb 7fbd a386 913c b0c9 19bd 379c 10bd
000003f0: 1fd0 5f3d 50c4 043d dbc5 ac3c e6a1 b83d

fc2.bias f4 [64]
0.04183462 -0.014806742 -0.03767801 -0.009055242 -0.0630435 0.055493675 0.07046728 -0.027908934
-0.011865525 0.032024994 -0.017749071 0.04674724 -0.055190027 -0.07724512 -0.0010897141 -0.01507848
0.014474514 -0.04231541 -0.050681133 -0.02294789 -0.012851694 -0.055035852 0.0043922244 -0.02866588
0.024947422 -0.07958365 -0.074182205 -0.022897398 0.10125434 -0.014840158 -0.089081906 -0.0052690576
-0.040823545 0.066687524 0.03909451 -0.015902134 -0.0023850673 -0.035642695 -0.001444621 0.07492222
-0.0793073 -0.028389849 -0.055792056 -0.050877035 0.091196395 -0.097526945 0.022877216 0.069039315
-0.003880637 -0.04384127 0.043887686 -0.010974612 -0.0038598632 -0.020411234 -0.027586067 0.097142465
0.09589466 -0.00044763513 -0.0031255288 -0.09257788 -0.044174585 0.0032812487 -0.048036918 -0.013325449
00000000: c75a 2b3d fa97 72bc 4254 1abd 705c 14bc
00000010: f31c 81bd 564d 633d 2651 903d 47a1 e4bc
00000020: 9e67 42bc a42c 033d 8066 91bc 097a 3f3d
00000030: f00e 62bd b132 9ebd bdd4 8eba bb0b 77bc
00000040: 8326 6d3c ec52 2dbd 0597 4fbd 37fd bbbc
00000050: e98f 52bc 466d 61bd a6ec 8f3b b5d4 eabc
00000060: 895e cc3c c1fc a2bd d7ec 97bd 5393 bbbc
00000070: 6f5e cf3d 2224 73bc 9370 b6bd 0fa8 acbb
00000080: 9736 27bd 7893 883d 9121 203d 3145 82bc
00000090: ca4e 1cbb 13fe 11bd 7059 bdba d270 993d
000000a0: de6b a2bd d491 e8bc 3686 64bd 7064 50bd
000000b0: 2dc5 ba3d 35bc c7bd 0069 bb3c 7c64 8d3d
000000c0: 4952 7ebb e792 33bd 93c3 333d dcce 33bc
000000d0: c2f5 7cbb 7635 a7bc 2dfc e1bc a1f2 c63d
000000e0: 6b64 c43d 92b0 eab9 acd5 4cbb 7999 bdbd
000000f0: 69f0 34bd 380a 573b 5cc2 44bd fc52 5abc

fc3.weight f4 [32, 64]
-0.08153655 0.05087314 -0.0006686264 -0.036556408 0.07964155 -0.08740389 0.084710576 -0.06584511
-0.06643432 0.055415433 0.12785797 0.067868404 0.013501958 0.10625463 -0.043554448 -0.13217211
0.053514827 -0.07420353 0.043659743 0.11635439 -0.11345876 0.035040997 0.1179141 -0.107014924
0.12036543 -0.10188422 -0.085784934 -0.08533154 -0.121491976 -0.05234574 0.11145484 0.080729336
0.11543818 -0.0029009876 0.060389895 0.0236156 -0.08371991 0.06448537 0.096317336 -0.057379
0.13130812 -0.0034844473 0.034267362 -0.01861447 0.04065631 -0.08408738 0.010590918 0.04844941
-0.04336935 0.012978129 0.10325332 -0.05607014 0.015957931 0.100927025 0.067536935 -0.11804599
-0.08240684 -0.021990594 -0.06681975 -0.1136282 -0.011889349 -0.09839431 0.06540588 -0.034739193
0.0063501257 -0.11032351 -0.07952831 0.060026813 -0.033057585 0.035425685 0.05959501 0.07499467
-0.06979329 0.034008183 0.04046415 -0.11522655 -0.081054434 0.084809795 0.072617054 0.022730842
-0.019451512 0.096242405 -0.08857783 0.06750642 0.08883642 -0.045898777 0.025999382 0.10905064
0.11826514 0.09974466 -0.043853566 -0.10377667 0.09017796 0.06860081 0.0042108744 -0.04710671
-0.06813216 -0.108462475 0.023374412 0.11548313 -0.081443354 -0.051028464 0.10366775 -0.05640123
-0.11054491 0.12269339 -0.021417283 0.026147518 0.085926905 0.10560644 0.093391225 0.09906431
0.061179146 0.09070888 -0.04796579 0.018425552 -0.08034886 0.035300486 0.046078976 0.11746448
-0.105454884 -0.04361029 -0.02460574 0.04376812 -0.016993778 0.010132381 0.034822896 -0.010352456
0.05673878 -0.12910122 0.043134063 0.00477632 0.078825876 -0.08930823 -0.0846674 -0.1250619
0.04895545 -0.11473816 0.006814206 -0.043181032 -0.09283796 -0.09094335 -0.054928176 -0.07232017
-0.13370852 -0.1075908 -0.07716564 -0.05277283 0.044347573 -0.12704267 0.054596502 -0.032029606
0.00062674284 -0.008369527 -0.12296161 -0.061134875 0.053835187 -0.105912305 0.068512656 -0.067589425
-0.006156149 0.023882998 0.091214634 0.01603248 -0.102076955 0.0020790496 -0.098114334 0.014814737
0.03379642 0.04412979 -0.06475529 -0.12242549 0.00668042 0.031196875 -0.0007889677 0.013688627
0.040430862 0.07015878 0.08879286 0.023880843 -0.039805315 -0.12771323 -0.05906705 -0.022117913
-0.11446051 -0.045846798 0.08434675 0.016160963 0.049183052 0.015859168 0.111515455 -0.022120114
-0.022609685 0.0951798 0.11714751 -0.081086166 -0.039983254 -0.011205251 0.055287797 -0.0551916
-0.04462864 0.08605698 -0.025312986 0.056224793 -0.05869337 -0.04833825 0.0040746564 0.118395746
-0.02916326 -0.019437317 0.015439458 0.09552797 0.009715593 0.09226371 -0.080734484 0.028341318
0.034717746 -0.11888284 -0.003933086 0.115067825 0.047503896 -0.027814746 -0.06474888 -0.045888282
0.055518694 -0.01291722 -0.040098675 0.03476407 0.103565976 0.03192295 0.1082337 0.11721065
-0.03297856 0.029924124 -0.1098368 0.031439263 -0.0050523523 0.0073284754 -0.033860125 -0.04580083
-0.052020073 -0.04911301 -0.10155622 0.009776445 -0.047482032 0.019852154 0.06978797 0.12481001
0.043691758 0.079303086 0.09420364 0.02825354 0.05349139 -0.10951347 0.12327287 -0.08164988
00000000: a2fc a6bd 5b60 503d c246 2fba 2cbc 15bd
00000010: 1c1b a33d d000 b3bd bd7c ad3d cdd9 86bd
00000020: b70e 88bd 4bfb 623d 33ed 023e 97fe 8a3d
00000030: 5137 5d3c 079c d93d 2666 32bd 2058 07be
00000040: 5d32 5b3d 05f8 97bd 8fd4 323d 364b ee3d
00000050: 115d e8bd 2687 0f3d f37c f13d a42a dbbd
00000060: 2782 f63d ada8 d0bd 03b0 afbd 4dc2 aebd
00000070: c9d0 f8bd 7d68 56bd 6f42 e43d 6c55 a53d
00000080: da6a ec3d 7f1e 3ebb 655b 773d 8175 c13c
00000090: 5875 abbd e810 843d 0642 c53d 3e06 6bbd
000000a0: a375 063e 535b 64bb ef5b 0c3d 5f7d 98bc
000000b0: 3b87 263d 0136 acbd 8885 2d3c e372 463d
000000c0: 0fa4 31bd 38a2 543c 7a76 d33d cea9 65bd
000000d0: 35ba 823c d4b2 ce3d ce50 8a3d 19c2 f1bd
000000e0: ebc4 a8bd 9e25 b4bc cbd8 88bd e7b5 e8bd
000000f0: 8bcb 42bc f582 c9bd 85f3 853d af4a 0ebd
00000100: b714 d03b 4bf1 e1bd bddf a2bd adde 753d
00000110: 6467 07bd 861a 113d e619 743d ce96 993d
00000120: c9ef 8ebd 2a4c 0b3d bdbd 253d e6fb ebbd
00000130: deff a5bd c2b0 ad3d 40b8 943d 0836 ba3c
00000140: c758 9fbc bd1a c53d 4b68 b5bd ce40 8a3d
00000150: deef b53d 5b00 3cbd a8fc d43c f155 df3d
00000160: fe34 f23d ee46 cc3d cc9f 33bd dd88 d4bd
00000170: 39af b83d 957e 8c3d 60fb 893b f7f2 40bd
00000180: e088 8bbd 9321 debd b27b bf3c 6b82 ec3d
00000190: c6cb a6bd 3903 51bd c24f d43d fa04 67bd
000001a0: 5f65 e2bd ac46 fb3d 4c73 afbc 5233 d63c
000001b0: 72fa af3d 3048 d83d e643 bf3d 3be2 ca3d
000001c0: fc96 7a3d 94c5 b93d c777 44bd 2ff1 963c
000001d0: f18d a4bd 3e97 103d 4fbd 3c3d 3891 f03d
000001e0: bbf8 d7bd b4a0 32bd fa91 c9bc 3346 333d
000001f0: 8936 8bbc 4902 263c 74a2 0e3d 599d 29bc
00000200: ec66 683d 1c33 04be 58ad 303d ad82 9c3b
00000210: 766f a13d 3ce7 b6bd 1a66 adbd 3a10 00be
00000220: 8385 483d d7fb eabd b449 df3b 98de 30bd
00000230: d421 bebd 8240 babd 5efc 60bd 991c 94bd
00000240: e3ea 08be 9158 dcbd 0509 9ebd 5328 58bd
00000250: cda5 353d 7917 02be 95a0 5f3d 7a31 03bd
00000260: 004c 243a 5720 09bc 4cd3 fbbd 9068 7abd
00000270: 4982 5c3d 8de8 d8bd 5d50 8c3d 536c 8abd
00000280: 85b9 c9bb 47a6 c33c bdce ba3d 8c56 833c
00000290: b90d d1bd aa40 083b 2bf0 c8bd 83b9 723c
000002a0: 1d6e 0a3d 70c1 343d 6c9e 84bd 37ba fabd
000002b0: 6de7 da3b 9790 ff3c bad2 4eba 4346 603c
000002c0: d59a 253d 68af 8f3d 08d9 b53d c2a1 c33c
000002d0: e60a 23bd 42c7 02be 4bf0 71bd a030 b5bc
000002e0: 466a eabd dac9 3bbd fdbd ac3d ff63 843c
000002f0: 2b74 493d 16eb 813c 3762 e43d 3e35 b5bc
00000300: f237 b9bc a1ed c23d 09eb ef3d 8110 a6bd
00000310: 7bc5 23bd 3b96 37bc 7575 623d 9610 62bd
00000320: 85cc 36bd a43e b03d 2e5d cfbc f84b 663d
00000330: 7668 70bd 54fe 45bd b284 853b 7879 f23d
00000340: cae7 eebc 023b 9fbc c8f5 7c3c 2ba4 c33d
00000350: 272e 1f3c c2f4 bc3d 1f58 a5bd 0d2c e83c
00000360: 3234 0e3d d978 f3bd 1ee1 80bb aea8 eb3d
00000370: 7293 423d c0db e3bc 109b 84bd 5af5 3bbd
00000380: 9267 633d bfa2 53bc 823e 24bd c564 0e3d
00000390: 661a d43d a4c1 023d a1a9 dd3d 230c f03d
000003a0: 8714 07bd 7023 f53c 1ef2 e0bd 75c6 003d
000003b0: 348e a5bb b523 f03b eab0 0abd a799 3bbd
000003c0: 0013 55bd b92a 49bd b5fc cfbd 622d 203c
000003d0: 857c 42bd fca0 a23c ffec 8e3d 649c ff3d
000003e0: 21f6 323d a869 a23d d7ed c03d f873 e73c
000003f0: ca19 5b3d 9948 e0bd 7d76 fc3d 0d38 a7bd

fc3.bias f4 [32]
0.044057455 -0.061755236 0.071203046 0.102863066 -0.01976456 0.11763158 -0.052322183 0.0924682
-0.07566539 -0.12137454 0.06097907 -0.016794283 0.02801989 -0.061843615 0.065390944 0.07673669
0.0004849478 -0.11374146 -0.08829501 -0.09352965 -0.08195918 -0.08482792 -0.06755671 -0.12264615
0.017204085 0.10453064 -0.04425177 -0.082139544 0.09305728 0.047343906 -0.008356126 -0.025367087
00000000: 9775 343d 0ff3 7cbd e7d2 913d dfa9 d23d
00000010: 49e9 a1bc d3e8 f03d c94f 56bd f85f bd3d
00000020: 75f6 9abd 3793 f8bd 30c5 793d 2a94 89bc
00000030: f889 e53c bb4f 7dbd b0eb 853d 2028 9d3d
00000040: 9840 fe39 48f1 e8bd 04d4 b4bd 798c bfbd
00000050: 37da a7bd 43ba adbd 2c5b 8abd e82d fbbd
00000060: 95ef 8c3c 2914 d63d 5841 35bd c738 a8bd
00000070: d194 be3d afeb 413d 22e8 08bc a3ce cfbc

fc4.weight f4 [1, 32]
-0.16400917 -0.17410119 -0.032757886 0.14451216 0.012321539 0.1574424 -0.12633547 -0.06177642
0.016345235 0.1470511 0.16655013 -0.119178765 0.031104367 0.08058468 -0.0060560065 -0.15316688
-0.08144552 0.043608114 -0.050960634 -0.0002913947 -0.15591885 -0.045149934 -0.14464407 -0.0014003098
-0.09546426 0.14738297 -0.050205983 -0.08914926 0.033378363 0.018400835 -0.07746684 -0.16429245
00000000: 05f2 27be 9547 32be 222d 06bd fffa 133e
00000010: 48e0 493c 9538 213e 165e 01be 4509 7dbd
00000020: 71e6 853c 9094 163e 1e8c 2a3e ff13 f4bd
00000030: 96ce fe3c 9509 a53d 7771 c6bb c7d7 1cbe
00000040: e9cc a6bd 6c9e 323d 19bc 50bd 56c6 98b9
00000050: 31a9 1fbe 23ef 38bd 931d 14be 9a8a b7ba
00000060: c482 c3bd 90eb 163e caa4 4dbd e393 b6bd
00000070: c0b7 083d 59bd 963c efa6 9ebd 483c 28be
